model/keypoint_classifier/keypoint_classifier.tflite (tflite, 6716 bytes, 6 tensors)

arith.constant f4 [8, 10]
0	0xbec6c7f8	-0.3882444
1	0x3f67be62	0.90524876
2	0x3eaed9a4	0.34150422
3	0xbd3cc17d	-0.046082962
4	0x3f396cd5	0.7243169
5	0x3d6a20f9	0.05716035
6	0x3f742910	0.95375156
7	0x3e0be74c	0.13662452
8	0xbed5cb6c	-0.4175676
9	0x3f1cc0f9	0.6123195
10	0x3f3ec51f	0.7451953
11	0xbefd1c10	-0.49435472
12	0x3f0ae027	0.5424828
13	0x3f388585	0.72078735
14	0x3d9a717e	0.07541178
15	0xbec1f4f7	-0.37882206
16	0xbd13c5bf	-0.036077257
17	0x3e7defb0	0.24798465
18	0x3e8cd286	0.27504367
19	0x3e05180b	0.12997453
20	0xbde797b1	-0.1130823
21	0xbf59be00	-0.8505554
22	0x3e7c9bcb	0.24668805
23	0xbeec6438	-0.4617021
24	0xbf58f160	-0.8474331
25	0xbe2d383d	-0.16915984
26	0x3e78cfaa	0.24297968
27	0x3f1cddc8	0.6127591
28	0x3fa6aabd	1.3020855
29	0xbe374d0f	-0.1790049
30	0xbf94bb89	-1.1619731
31	0x3f0f4344	0.55962014
32	0xbd2f5286	-0.04280331
33	0x3f5691f5	0.8381646
34	0x3e7eda7c	0.24888033
35	0xbeb9ca0d	-0.36286965
36	0xbfb89533	-1.4420532
37	0xbf91339b	-1.1343874
38	0xbf15e470	-0.5855169
39	0x3f51537e	0.81768024
40	0xc021ce30	-2.5282097
41	0x3da1daa3	0.0790303
42	0xc000ef9e	-2.014625
43	0x3e9bbbc4	0.3041669
44	0x3f4ceeee	0.8005208
45	0x3fb76958	1.4329023
46	0xbf3b958f	-0.73275083
47	0x3f1adff7	0.60497993
48	0xbd8dd7e8	-0.069259465
49	0xc0254a35	-2.5826542
50	0xbffee19a	-1.9912598
51	0xbf8d9d8f	-1.1063708
52	0x3f20a535	0.62752086
53	0x3e1ba2ee	0.15198871
54	0xbfc10d24	-1.5082135
55	0x3f8ab98d	1.0837876
56	0xbf98c4ef	-1.1935099
57	0x3f5f4e1a	0.8722855
58	0xbf38740d	-0.7205208
59	0x3e27dc13	0.16392545
60	0x3f4b1f7d	0.7934492
61	0x3eba3de5	0.36375347
62	0xbf29a49c	-0.662668
63	0x3dad6a8f	0.0846759
64	0xbe9567a9	-0.2918065
65	0xbf2c6ff3	-0.6735832
66	0x3e887744	0.26653492
67	0xbfc5c629	-1.5451099
68	0x3f08e285	0.5347064
69	0xbe48f83c	-0.19625944
70	0x3ee96584	0.45585263
71	0x3e192371	0.14954926
72	0xbf16ef62	-0.5895902
73	0xbf646ddf	-0.8923015
74	0x3f12aaff	0.5729217
75	0xbf154f4d	-0.5832413
76	0xbf745df0	-0.9545584
77	0x3f300587	0.68758434
78	0xbf79dfed	-0.9760731
79	0x3e473839	0.19455041

arith.constant1 f4 [10, 20]
0	0x3f08bf6a	0.53417075
1	0x3e75f8b6	0.24020657
2	0x3dcaf10f	0.099092595
3	0x3e419516	0.18904528
4	0x3e14ac7d	0.14518924
5	0x3e5fedda	0.21868077
6	0xbd6fec42	-0.058574922
7	0x3fa9594d	1.3230377
8	0x3e25f3b1	0.16206242
9	0xbdca7273	-0.09885111
10	0x3e926cb1	0.2859855
11	0xbd84d221	-0.064853914
12	0xbe6fcf43	-0.23418908
13	0x3f9c205d	1.2197376
14	0x3ed1967d	0.40935126
15	0x3f5369ef	0.82583517
16	0x3f0230da	0.5085579
17	0x3f20e114	0.6284344
18	0x3eb2bc49	0.34909275
19	0x3eb152b0	0.34633398
20	0x3eab1f24	0.33422196
21	0x3d22e11c	0.039765462
22	0x3e9cc612	0.30619866
23	0x3f218eec	0.63108706
24	0xbdca151a	-0.09867306
25	0x3e6a21c7	0.22864448
26	0x3c98f7b9	0.01867281
27	0x3e10a466	0.14125213
28	0xbc10cf62	-0.008838506
29	0xbf3551f7	-0.70828193
30	0x3e908a9c	0.2823075
31	0x3d272380	0.04080534
32	0x3f5fa049	0.8735395
33	0x3c080078	0.008300893
34	0xbe1fcb6c	-0.15604943
35	0x3f44143e	0.7659339
36	0x3c6facb5	0.014628579
37	0xbdd4fc5d	-0.10399697
38	0x3e0edfdd	0.13952585
39	0x3cc9185c	0.024547748
40	0x3c040172	0.008056985
41	0xbce04c71	-0.0273802
42	0x3e92d8b0	0.28680944
43	0x3e76247a	0.24037352
44	0x3cfedc6e	0.031110968
45	0x3d21c57a	0.03949497
46	0x3f3fee36	0.74972856
47	0x3db52435	0.088447966
48	0x3f53961a	0.8265091
49	0xbd7904ac	-0.06079547
50	0x3f5d6a91	0.8649073
51	0x3dac9fae	0.08428894
52	0xbcecaa54	-0.028889813
53	0xbc26dcd5	-0.010184486
54	0x3e7689a6	0.24075946
55	0xbde65bff	-0.112480156
56	0x3e141415	0.14460786
57	0x3eaab1d7	0.33338806
58	0xbf2b819f	-0.6699466
59	0x3f9658d0	1.1745853
60	0x3c3be3e5	0.0114679085
61	0x3ee96955	0.45588174
62	0x3f391fcb	0.7231414
63	0xbd7e3ba4	-0.062068596
64	0x3ee66d88	0.4500544
65	0x3f25ec70	0.648139
66	0x3f2d61b9	0.6772724
67	0x3e86155c	0.2618817
68	0x3ea10ef5	0.31456724
69	0xbd881289	-0.0664416
70	0xbf094806	-0.53625524
71	0xbf6c2057	-0.92236847
72	0x3f2da2eb	0.6782672
73	0xbeebffa9	-0.4609349
74	0x3f8de798	1.1086302
75	0x3b98a019	0.004657757
76	0xbedf3dab	-0.43601736
77	0x3f8c1a65	1.0945555
78	0x3e9e41db	0.3090962
79	0x3e3f8d6b	0.1870629
80	0xbe8d2c9e	-0.27573103
81	0x3eaedeba	0.34154302
82	0xbe60be3a	-0.21947566
83	0x3f1d2441	0.61383444
84	0x3db4e8d6	0.088334724
85	0x3efda5da	0.49540597
86	0xbe12a5b8	-0.14321029
87	0x3e8515bb	0.25993142
88	0xbe3d0b91	-0.18461443
89	0x3f4c1ace	0.797284
90	0x3ef802f9	0.48439768
91	0x3e5da141	0.21643545
92	0x3f8bf4e9	1.0934116
93	0x3e70e10a	0.23523346
94	0xbe84f1d2	-0.25965744
95	0x3ef826ab	0.48467
96	0x3c1f1cf6	0.009711495
97	0x3e6f5f1c	0.23376125
98	0x3e0bb661	0.13643791
99	0x3f248bfa	0.6427609
100	0xbf9bb2ca	-1.2163937
101	0x3e64a498	0.22328413
102	0x3ea90a91	0.33015874
103	0xbfae04c8	-1.3595209
104	0x3eb7497b	0.3579825
105	0xbe2f3e63	-0.17113642
106	0x3ec73bd1	0.38912824
107	0xbea050b5	-0.31311575
108	0x3d6e6346	0.058200143
109	0x3d75aa5b	0.059976917
110	0xbf64f7e3	-0.89440745
111	0x3fab9b87	1.3406838
112	0x3ed04d7e	0.40684122
113	0xbec8a617	-0.39189216
114	0xbf9828df	-1.1887473
115	0xbf65befc	-0.89744544
116	0x3eb0c6bb	0.3452662
117	0xbf05e463	-0.52301615
118	0x3d2b061d	0.041753877
119	0xbe55696f	-0.20841001
120	0x3f33c0c3	0.70216006
121	0x3f256e23	0.6462118
122	0x3d8ab957	0.06773632
123	0xbe299872	-0.1656206
124	0xbf26ef17	-0.6520857
125	0x3e6ef883	0.23336987
126	0x3d979ba0	0.0740273
127	0x3ebfda47	0.3747122
128	0xbe04b2a7	-0.12958775
129	0xbdd73d3c	-0.105097264
130	0x3f29b264	0.6628783
131	0x3f52ea96	0.823892
132	0x3cb1a2d5	0.02168409
133	0x3cef284f	0.029194025
134	0xbda29c00	-0.07939911
135	0x3f58f598	0.84749746
136	0x3f74de09	0.956513
137	0x3dd490ba	0.10379167
138	0x3f1d9bfd	0.61566144
139	0x3f0ab4ba	0.54182017
140	0x3d76b2c6	0.060229085
141	0x3d1545a9	0.036443386
142	0x3e8d8b5d	0.27645388
143	0x3dc682de	0.0969293
144	0x3f853509	1.040681
145	0xbde56b1d	-0.11202071
146	0xbba691ea	-0.0050833123
147	0x3d634897	0.05548915
148	0x3c96b6c2	0.018397693
149	0x3ce05071	0.027382107
150	0x3edc4daa	0.43028003
151	0x3fd682e8	1.67587
152	0xbe34f750	-0.17672467
153	0x3e118f3e	0.14214799
154	0xbeaa47cd	-0.33257905
155	0xbf43ebd9	-0.7653175
156	0x3f918b3c	1.1370616
157	0xbedacf31	-0.427362
158	0x3e0e8440	0.13917637
159	0x3ddb0433	0.1069416
160	0xbd24f3a4	-0.040271416
161	0x3ec4c330	0.38430166
162	0xbf1b7953	-0.60732
163	0xbf547044	-0.82983804
164	0x3ecd7830	0.40130758
165	0xbf48ff01	-0.78514105
166	0x3d539f80	0.051665783
167	0x3d8771a3	0.06613471
168	0x3f0494da	0.5178963
169	0xbf784d65	-0.96993095
170	0x3edff05d	0.4373807
171	0x3eaa6d6f	0.33286616
172	0xbfb6be5d	-1.4276844
173	0x3efb9605	0.49137893
174	0x3ec3d8f4	0.3825146
175	0xbe5b8584	-0.21437651
176	0x3e975f4d	0.29564896
177	0x3e3b33f9	0.18281545
178	0x3f13e57f	0.5777206
179	0x3f11d24a	0.569615
180	0x3f1fd511	0.6243449
181	0xbee0f3a6	-0.4393589
182	0x3f9ce19b	1.2256349
183	0x3f2af9eb	0.66787595
184	0xbca98949	-0.020695345
185	0x3fabb46d	1.3414437
186	0x3f4f9aa4	0.8109534
187	0xbd919185	-0.07107834
188	0x3f7d8e21	0.99044997
189	0x3ee2f36c	0.4432634
190	0xbede6c57	-0.43442032
191	0x3e382e09	0.17986311
192	0x3cacab6b	0.021077832
193	0x3cc58c07	0.024114622
194	0x3f683647	0.9070782
195	0x3f1d0e41	0.61349875
196	0x3e92ba75	0.2865788
197	0x3f20c0f5	0.6279443
198	0x3f2553f5	0.64581233
199	0x3f3dad53	0.74092597

arith.constant2 f4 [8]
0	0xbf0bd275	-0.54618007
1	0xbde7a36e	-0.113104686
2	0x3f0eda51	0.55801874
3	0x3f0a45ca	0.5401274
4	0x3f25e87d	0.64807874
5	0xbec90df1	-0.3926845
6	0xbeec319c	-0.461316
7	0x3d323535	0.043507773

arith.constant3 f4 [10]
0	0x3dbec307	0.09314542
1	0xbe3f2750	-0.1866734
2	0x3cbf6cff	0.023367403
3	0x3e53b470	0.206743
4	0xbe55a0a5	-0.20862062
5	0x3f639106	0.88893163
6	0x3e34156c	0.17586297
7	0x3f3d6364	0.73979783
8	0x3f6f5a28	0.9349694
9	0x3e58f117	0.21185718

sequential_1_1/dense_3_1/Add/ReadVariableOp f4 [20]
0	0xbe146f52	-0.1449559
1	0xbee57a7e	-0.44820017
2	0xbf283466	-0.65704954
3	0xbec1f9cf	-0.378859
4	0xbf45d0ad	-0.7727154
5	0xbf1ee422	-0.62066853
6	0xbf717250	-0.9431505
7	0xbf46ff3a	-0.77733195
8	0xbf1a2e96	-0.60227334
9	0xbed344fa	-0.41263562
10	0x3e92eb70	0.2869525
11	0xbeacb50f	-0.33731887
12	0xbf208b99	-0.6271301
13	0xbf21d0f4	-0.6320946
14	0xbf5e172b	-0.867541
15	0xbf0e14f7	-0.5550074
16	0xbc1cd942	-0.009573283
17	0xbf3f6b5a	-0.7477318
18	0x3efd3da5	0.49461094
19	0xbe75a737	-0.23989569

sequential_1_1/dense_3_1/MatMul f4 [20, 42]
0	0xbe133a3a	-0.1437768
1	0xbe62544d	-0.2210247
2	0xbe96a90d	-0.2942585
3	0xbe431340	-0.19050312
4	0xbe4b0621	-0.19826557
5	0xbec82d97	-0.39097282
6	0xbf3f3994	-0.7469723
7	0xbf045335	-0.51689464
8	0xbf7da82b	-0.9908473
9	0xbeda2807	-0.42608663
10	0xbe713316	-0.23554644
11	0x3e3733c3	0.1789084
12	0x3cc6e427	0.024278713
13	0x3d3cb3e4	0.046069995
14	0x3e23dd1c	0.16002315
15	0x3b8a258f	0.004215903
16	0x3e84ddd0	0.2595048
17	0xbc861d47	-0.016371382
18	0xbe8adcdb	-0.27121624
19	0x3e55c10f	0.20874427
20	0x3d81224a	0.06305368
21	0x3d9312a9	0.071812935
22	0x3f165031	0.5871611
23	0x3df5cced	0.12001977
24	0x3f3b51f8	0.7317195
25	0x3e105c5b	0.14097731
26	0xbea4da86	-0.3219797
27	0x3e804fd2	0.25060898
28	0xbdf37220	-0.11887002
29	0x3d1ea18b	0.038728278
30	0x3f154b2a	0.58317816
31	0x3d82be4f	0.06383955
32	0x3f83b3f7	1.0289296
33	0xbdd6501c	-0.104644984
34	0xbe2e4906	-0.17020044
35	0x3e802383	0.25027093
36	0xbcdcdcef	-0.026960818
37	0x3db2f16d	0.087374546
38	0x3e7e1be8	0.24815333
39	0x3df6b18c	0.12045583
40	0x3ee806a5	0.4531757
41	0x3dc43182	0.09579755
42	0xbe68ce36	-0.22734913
43	0x3e2b44ba	0.16725436
44	0x3f01bef7	0.50682014
45	0xbf4ab254	-0.7917836
46	0x3ebf5e6c	0.37376726
47	0xbf584fcf	-0.8449678
48	0x3eb6d23c	0.3570727
49	0xbf2af537	-0.6678042
50	0x3f0ddba9	0.554133
51	0xbf3247a0	-0.6964054
52	0xbde53b7d	-0.11192987
53	0xbe49847b	-0.19679444
54	0x3cdce218	0.026963279
55	0xbe45d518	-0.1931957
56	0x3e9affd9	0.3027332
57	0xbdbb4c43	-0.09145405
58	0x3ea4d482	0.3219338
59	0x3da235fd	0.07920454
60	0xbe7ff4da	-0.24995747
61	0xbb821766	-0.0039700745
62	0x3db08aec	0.08620247
63	0xbe75f1b8	-0.2401799
64	0x3f1289be	0.5724143
65	0xbed62bc5	-0.41830269
66	0x3f4219d7	0.7582068
67	0xbed84687	-0.42241308
68	0xbeb15ae6	-0.34639663
69	0x3ddbd632	0.10734214
70	0xbd8918ee	-0.06694208
71	0xbe2df858	-0.16989267
72	0x3ecd93ff	0.40151975
73	0xbdb2e07c	-0.08734223
74	0x3f1368ac	0.5758159
75	0xbc9d876c	-0.019229613
76	0xbd167e3b	-0.036741477
77	0x3e7b3d14	0.24535018
78	0xbe9aa5d5	-0.30204645
79	0x3e3fd79d	0.18734594
80	0xbede387a	-0.43402463
81	0x3ea198a5	0.3156177
82	0xbee246f8	-0.4419477
83	0x3ead6b7c	0.33871067
84	0xbd8292e0	-0.063756704
85	0x3dbb2d48	0.09139496
86	0xbdd13b7b	-0.10216423
87	0x3e868bc8	0.2627852
88	0x3e36ec42	0.17863563
89	0x3e1b4db6	0.15166363
90	0x3e90f6d5	0.28313318
91	0x3e3d0214	0.18457824
92	0x3ec0e152	0.37671906
93	0x3df26172	0.118349925
94	0x3c534436	0.012894681
95	0x3d5ac6fc	0.053412423
96	0xbd3e0935	-0.0463955
97	0x3d68f60b	0.05687527
98	0xbd54d418	-0.05196008
99	0x3c05f891	0.008176939
100	0x3cfbe6f6	0.03074978
101	0xbb564436	-0.0032694465
102	0x3db8ae87	0.090176634
103	0x3dc01d0d	0.09380541
104	0x3c221e57	0.009894929
105	0x3cff9599	0.031199263
106	0xbebf3970	-0.3734851
107	0xbdd42f70	-0.103606105
108	0xbf87fed2	-1.062464
109	0x3d11c2cb	0.03558616
110	0x3e9e8cc5	0.30966774
111	0x3dffdb85	0.12493042
112	0x3d2ee911	0.04270274
113	0x3c1628a6	0.009164965
114	0xbe61dbe7	-0.22056542
115	0xbee45658	-0.44597125
116	0xbf7a7563	-0.9783537
117	0xbf227453	-0.63458747
118	0x3eb54f3a	0.35412008
119	0x3e244e29	0.1604544
120	0x3db909d1	0.090350755
121	0x3ca58a10	0.020207435
122	0x3b5edef9	0.0034007414
123	0xbf2050ba	-0.6262318
124	0xbe1009af	-0.14066194
125	0xbf4278d1	-0.759656
126	0xbd9eb820	-0.07749963
127	0x3e5927b8	0.21206558
128	0x3c4aa8e1	0.012369365
129	0x3dbe0c70	0.09279716
130	0xbe1d09e7	-0.15335809
131	0x3df878a6	0.12132387
132	0xbecad0e4	-0.39612496
133	0x3e011438	0.12605369
134	0xbf1cc7f2	-0.6124259
135	0x3e0b31cf	0.13593219
136	0x3e35a9a7	0.17740498
137	0x3e66e9e2	0.22550157
138	0x3dedf132	0.1161827
139	0x3dee6206	0.1163979
140	0x3d4e6c9f	0.050396558
141	0x3d9e258e	0.07722007
142	0x3c4284c7	0.011872477
143	0x3d1f43f1	0.038883153
144	0x3dc426cb	0.09577712
145	0x3e2a6b31	0.16642453
146	0x3d9767bd	0.073928334
147	0x3d1cba6f	0.038263734
148	0x3dc71a95	0.09721867
149	0xbdeaf664	-0.114727765
150	0x3ed008c7	0.40631697
151	0xbda7728b	-0.08176144
152	0xbda9aac7	-0.08284526
153	0x3e21a76d	0.15786524
154	0x3d8e7834	0.06956521
155	0x3c8f9923	0.017529076
156	0x3e90eee7	0.28307268
157	0xbf26d3ad	-0.6516674
158	0x3f162a53	0.5865833
159	0xbf299528	-0.6624322
160	0xbe5c1efa	-0.21496192
161	0x3e09b084	0.13446242
162	0xbdd7b965	-0.10533408
163	0x3c83f6c4	0.016108878
164	0x3dbbfbbf	0.09178876
165	0xbe067092	-0.1312888
166	0x3e9ca838	0.3059709
167	0xbe1ff77c	-0.15621752
168	0xbe40ca84	-0.18827254
169	0xbdc14382	-0.09436704
170	0xbebe1254	-0.37123358
171	0x3e4a6288	0.19764149
172	0xbe74da9e	-0.23911521
173	0xbcbb1b8a	-0.02284028
174	0x3ec41e87	0.3830454
175	0x3d0238d2	0.03179247
176	0x3f429447	0.76007503
177	0x3c11a89c	0.008890297
178	0xbf55e53b	-0.835529
179	0xbe81387a	-0.252384
180	0xbefb59d6	-0.49091977
181	0xbe787962	-0.24265054
182	0xbe56ed45	-0.20988949
183	0xbe65d383	-0.22443967
184	0xbe287364	-0.16450268
185	0xbd19bd81	-0.03753424
186	0xbf11a56d	-0.56893045
187	0xbe8520e8	-0.26001668
188	0xbdbb3f80	-0.09142971
189	0xbe06d81a	-0.13168374
190	0x3e360811	0.17776515
191	0x3d9ea292	0.077458516
192	0x3e650476	0.22364983
193	0x3d74b3ac	0.05974166
194	0xbe00d202	-0.12580112
195	0xbeae8de1	-0.3409262
196	0x3e0bf64e	0.13668177
197	0xbc9cdd87	-0.019148601
198	0x3e371afa	0.17881384
199	0x3e6efe34	0.23339158
200	0x3e01529a	0.12629166
201	0x3e80e1ce	0.25172275
202	0x3e5ffaa7	0.2187296
203	0xbf153f56	-0.5829977
204	0x3e206c66	0.1566635
205	0xbe26230f	-0.16224311
206	0x3e5e12a9	0.21686806
207	0x3d8df7b1	0.06932009
208	0x3dfd64b8	0.12372726
209	0x3e0f0180	0.13965416
210	0xbe8dc499	-0.27689055
211	0xbcb3af00	-0.021934032
212	0xbdab5e97	-0.08367651
213	0x3ef4bb02	0.47798926
214	0x3a9efc4f	0.0012129637
215	0x3eab5593	0.33463725
216	0x3dab04d4	0.0835053
217	0x3e6a1057	0.22857796
218	0x3e8c899f	0.27448747
219	0x3e078748	0.132352
220	0x3d870848	0.065933764
221	0xbc758f2e	-0.01498775
222	0x3ba15391	0.004923292
223	0x3da7bdb8	0.08190483
224	0x3d7885e5	0.060674567
225	0x3dac4cf6	0.08413117
226	0x3d2e8f2e	0.042617016
227	0x3dab93fb	0.083778344
228	0x3d6a9493	0.057270598
229	0xbc5c9aac	-0.013464611
230	0x3d768787	0.060187843
231	0x3cdd161b	0.02698808
232	0xbe2ede40	-0.17076969
233	0xbe628ca4	-0.22123963
234	0xbe84b02b	-0.25915655
235	0xbe84724e	-0.25868458
236	0x3e254c17	0.16142307
237	0xbca6997f	-0.020336865
238	0x3d998358	0.07495755
239	0x3d1c9e7a	0.038237073
240	0xbebc4c79	-0.36777094
241	0xbeca2b4e	-0.39486164
242	0xbf1378da	-0.5760628
243	0xbf76e579	-0.964439
244	0x3e98e718	0.2986381
245	0x3d80b27f	0.062840454
246	0x3d448a1a	0.047983266
247	0x3d930f77	0.07180684
248	0xbe71ffca	-0.23632732
249	0xbce65eb8	-0.028121337
250	0xbf41f6da	-0.7576729
251	0xbe58c45a	-0.21168652
252	0xbe9591c9	-0.29212788
253	0x3e4170ee	0.18890736
254	0xbec374a5	-0.3817493
255	0xbe7c18a3	-0.24618773
